policy_net.pt (torch_old, 60300 bytes, 4 tensors)

weight f4 [84, 126]
0	0x4104312c	8.262005
1	0xc135be00	-11.358887
2	0x40dae984	6.8410053
3	0xc11707e9	-9.439431
4	0xc10910f2	-8.566637
5	0xc1645374	-14.270374
6	0x408e17d5	4.440409
7	0x40e10c4e	7.032752
8	0xc1203307	-10.012458
9	0xc117573b	-9.4587965
10	0xc1084eda	-8.519251
11	0xc12b4a03	-10.705569
12	0xbfe0d0cd	-1.7563721
13	0xc05f579a	-3.4897218
14	0xbff5cfd6	-1.9204051
15	0xbd1eb4a5	-0.038746495
16	0xc0faa1c6	-7.8322477
17	0x3fe152ba	1.7603371
18	0xc0f8c96b	-7.774587
19	0xc0e76609	-7.2312055
20	0xbe7df44a	-0.2480022
21	0xc12e7c40	-10.905334
22	0x4072c6ba	3.7933793
23	0xc0f5f37d	-7.6859727
24	0xc0767943	-3.8511512
25	0xc13ddf87	-11.867072
26	0xc00e5cf4	-2.2244234
27	0x413d11e3	11.816867
28	0xc0f794f2	-7.736932
29	0xc144d661	-12.302339
30	0xc0f5e581	-7.6842656
31	0x414f8369	12.969583
32	0xc007d85d	-2.1225808
33	0xc0dcffe3	-6.906236
34	0xc122c6bb	-10.173518
35	0xc1334761	-11.2049265
36	0xc0bbd0cc	-5.869238
37	0xc0758745	-3.8363812
38	0xc1711728	-15.068153
39	0xc10e8625	-8.90775
40	0xc0a40986	-5.1261625
41	0xc0454556	-3.082357
42	0xc0916a23	-4.544206
43	0xc0a9448a	-5.2896166
44	0x40ad9388	5.424259
45	0xc148bfa9	-12.546792
46	0x400f0eca	2.2352777
47	0xbfa5b550	-1.2945957
48	0xc16dcde4	-14.862766
49	0xc192402a	-18.28133
50	0xc128dbb2	-10.553637
51	0xc14f3a0f	-12.951674
52	0xc15c45b5	-13.767018
53	0xc11abbc6	-9.670843
54	0xc145aab2	-12.354174
55	0xbdf5b6ea	-0.11997779
56	0xc1833ede	-16.405697
57	0xc1a905f3	-21.127905
58	0xc1043f89	-8.2655115
59	0xc090c0f7	-4.5235553
60	0x3ef727c9	0.4827254
61	0x3c6b01c8	0.014343686
62	0xc07d0860	-3.9536362
63	0xc0ee222b	-7.441671
64	0xc0d8d9c0	-6.776581
65	0xc15475f0	-13.278793
66	0xc16f969d	-14.974271
67	0xc18c1df1	-17.51462
68	0x40dc2c28	6.88039
69	0xc102fa8e	-8.186171
70	0x4006f90b	2.1089504
71	0xc175bb61	-15.358247
72	0x3fab1d5c	1.3368335
73	0xc0d4e28d	-6.652655
74	0xc0e2441b	-7.0708137
75	0x409c07c5	4.8759484
76	0xc1208fb0	-10.03508
77	0xc071e2e3	-3.779473
78	0xc067bee2	-3.6210256
79	0x4040097f	3.0005796
80	0xc1400b8f	-12.002822
81	0x40bd9ae3	5.925157
82	0xc1574fc1	-13.456971
83	0xc08d93a7	-4.424274
84	0xc1adecba	-21.74059
85	0xc11ca65c	-9.790615
86	0xc16eee89	-14.933236
87	0x40967d9b	4.7028327
88	0xc052f4a9	-3.2961829
89	0xc188246c	-17.017784
90	0x410ff324	8.9968605
91	0xc166f67d	-14.435178
92	0xc0970fcf	-4.7206798
93	0xc13ddb09	-11.865975
94	0x407de218	3.9669247
95	0xc043df0f	-3.0604894
96	0x406e946e	3.7278094
97	0xc151ed22	-13.120394
98	0xc0b2f242	-5.5920725
99	0xc0dd9faa	-6.9257402
100	0xc0d01a71	-6.5032277
101	0x3f5d5016	0.86450326
102	0xc0c94c5b	-6.2905707
103	0xc066db0e	-3.60712
104	0xc0c66e74	-6.200983
105	0xc175218a	-15.320688
106	0xc1289b2f	-10.537887
107	0xbff13721	-1.8844949
108	0xc14559eb	-12.334453
109	0xc0d4bae5	-6.6478143
110	0xc0c518b2	-6.1592646
111	0xc18b9930	-17.449799
112	0xc153c62e	-13.235884
113	0xbf4a04b5	-0.7891343
114	0xbfff0088	-1.9922037
115	0xc13966d6	-11.587606
116	0xc147a7f0	-12.4785
117	0x3f4a8803	0.7911379
118	0xc0dc5b52	-6.8861475
119	0xc0b0595b	-5.5109076
120	0xc15a7a3d	-13.654843
121	0xc198e18d	-19.110132
122	0xc180891c	-16.066948
123	0xc1884461	-17.033388
124	0xc11bf325	-9.746861
125	0x3fe67570	1.8004589
126	0xc0d63824	-6.694353
127	0xbfd7f3c7	-1.687127
128	0xbf389a85	-0.7211078
129	0xbfc8d0cf	-1.5688723
130	0xc0d81d26	-6.753558
131	0xc0974b37	-4.7279315
132	0x3fe4ea6a	1.7884037
133	0xc01679c7	-2.3511827
134	0xbfe5de4b	-1.7958463
135	0xc075b45c	-3.8391333
136	0xc0a7f6fa	-5.2488985
137	0xc113600b	-9.210948
138	0xc06afd5e	-3.6717143
139	0x4089df07	4.308475
140	0xc1224e0c	-10.144054
141	0x3fefc6e0	1.8732567
142	0x40cf9f7c	6.4882183
143	0xc0e13305	-7.037478
144	0xc0bc17b9	-5.877896
145	0xc13e2e5a	-11.886316
146	0x40a2fc4c	5.093298
147	0x4041aab7	3.0260446
148	0xc0fb3259	-7.849896
149	0xc1197a8b	-9.592418
150	0xc0f68858	-7.7041435
151	0xc109dc05	-8.616216
152	0x3fa5b8da	1.2947037
153	0x40bf80f5	5.984492
154	0xc0194061	-2.3945544
155	0xbebe30f4	-0.37146723
156	0xc006a0cf	-2.103565
157	0xc15456da	-13.271204
158	0x408b1473	4.3462462
159	0xc0c100eb	-6.031362
160	0x3f8454e7	1.033841
161	0xc0a894e3	-5.2681746
162	0xc0412a77	-3.0182168
163	0xc0a8ad8b	-5.2711844
164	0xc112913c	-9.160458
165	0x3e815814	0.2526251
166	0xc14ba0fa	-12.726801
167	0xc0ebda34	-7.370386
168	0xc12bd170	-10.738632
169	0xc100d4d3	-8.051959
170	0x40a33b19	5.100964
171	0xc0bd6f43	-5.9198318
172	0xc0c9a396	-6.301219
173	0xc13af57b	-11.684932
174	0xc1365d21	-11.397737
175	0xc1080927	-8.502234
176	0xc15c8e6c	-13.784771
177	0x41327f66	11.156103
178	0xc0adfcad	-5.437094
179	0xc132a157	-11.16439
180	0xc0263de8	-2.5975285
181	0xc0511e71	-3.267483
182	0xc16046fb	-14.017329
183	0xc1088873	-8.533313
184	0xc0db40cf	-6.851661
185	0xbf734bed	-0.9503773
186	0xc12b327f	-10.699828
187	0xc10180b6	-8.093924
188	0xc04a0c20	-3.15699
189	0xc155c290	-13.360001
190	0xc1537e15	-13.218282
191	0xc108d36b	-8.551616
192	0xc03e370a	-2.9721093
193	0xc18a5ca3	-17.295233
194	0xc08eb385	-4.459414
195	0xc091e774	-4.5595036
196	0x4145c124	12.359653
197	0xc12a4630	-10.642136
198	0xc04cbd5a	-3.199057
199	0xbf88390d	-1.064241
200	0xc11f0d4d	-9.940747
201	0xbe8f8f46	-0.28038996
202	0x402889a1	2.6334002
203	0xc01d9dad	-2.4627488
204	0xc091d490	-4.5571976
205	0xc10998fc	-8.59985
206	0xbfcd637e	-1.6045988
207	0xc1303260	-11.012299
208	0xc0d9cc5c	-6.806196
209	0xc0b733a7	-5.725055
210	0xc1658f18	-14.347435
211	0xc16bc1de	-14.734831
212	0x4051bcf9	3.277159
213	0xbe81d12a	-0.25354892
214	0xc150ce4e	-13.050367
215	0xc0cd4919	-6.415173
216	0xc04876c7	-3.1322496
217	0x40eb2bb9	7.349087
218	0xc124b52c	-10.294231
219	0xc13a209b	-11.63296
220	0xc032186a	-2.78274
221	0xc1282549	-10.509103
222	0xc0bb2bd3	-5.8490996
223	0xc10d2d83	-8.823611
224	0x400118a9	2.0171301
225	0x3f1357ce	0.57555854
226	0xc17906c0	-15.564148
227	0xc03a2af5	-2.908872
228	0xc088ce11	-4.2751546
229	0xc0e2ee49	-7.0915875
230	0xc11d27e4	-9.822239
231	0xc097e936	-4.747218
232	0xc0ea3608	-7.3190956
233	0xc0dcbcb9	-6.8980374
234	0xbff27492	-1.8941824
235	0xc02f95e7	-2.7435243
236	0xc0f92cc2	-7.7867136
237	0xc04d7055	-3.2099812
238	0xc081e4d7	-4.0591846
239	0xc0beec9d	-5.9663835
240	0xc18d2e27	-17.647535
241	0x41162fde	9.386686
242	0xc11616cc	-9.380566
243	0xc05e5cd5	-3.474416
244	0xc1268c20	-10.40921
245	0x4079e0e4	3.9043512
246	0xc194799a	-18.559376
247	0xc0bb566d	-5.8543
248	0xc16abe20	-14.671417
249	0xbfd92545	-1.6964499
250	0xc0ef147e	-7.4712515
251	0xc0f6bb3a	-7.710355
252	0xc1299207	-10.598151
253	0xc0cd02be	-6.4065847
254	0x408cf3a2	4.4047403
255	0x419b43ee	19.408169

bias f4 [84]
0	0xc0c597f9	-6.1748013
1	0xc0abf497	-5.373607
2	0xc12699f6	-10.412588
3	0xc0898dd5	-4.2985635
4	0xc10aa313	-8.664813
5	0xc11d9e32	-9.851122
6	0x3e3b42d5	0.18287213
7	0x40511ddd	3.2674477
8	0xbf183cd1	-0.594678
9	0x403dfce8	2.9685612
10	0xc133fbe3	-11.248996
11	0xc1936739	-18.425402
12	0x3f1942d3	0.5986759
13	0xc0323e89	-2.7850668
14	0x4083aafe	4.114623
15	0xc170cc53	-15.049884
16	0xc1762bf0	-15.385727
17	0xc0ba7862	-5.827195
18	0x41d104a2	26.127262
19	0xc03f6c0d	-2.99097
20	0xc090e47f	-4.5278926
21	0xc182ef4a	-16.36684
22	0x429265cd	73.19883
23	0xc10bfcab	-8.7491865
24	0xc1213702	-10.07593
25	0xc0b5acde	-5.677352
26	0x3fb8b64d	1.4430634
27	0xc0c563f5	-6.168452
28	0xc080ffc1	-4.03122
29	0xc141c844	-12.111393
30	0x3f4400dd	0.7656382
31	0x4080104d	4.00199
32	0xc1057900	-8.342041
33	0xbf8f0a86	-1.1175086
34	0xc1467f59	-12.406091
35	0xc14d782e	-12.841841
36	0xc1154add	-9.330777
37	0xc1a2cee6	-20.351025
38	0xc1212a72	-10.072863
39	0xc16ea0e1	-14.914277
40	0x4089ad43	4.3024
41	0x40364854	2.8481646
42	0xbfe9997b	-1.8249964
43	0xc110d446	-9.051825
44	0xc0d5d2fd	-6.6820054
45	0xc137a5dc	-11.477993
46	0xc01a7860	-2.413597
47	0x405dc27c	3.4649954
48	0xc0ff2e1a	-7.9743776
49	0xc15e0996	-13.87734
50	0xbfd1d050	-1.6391697
51	0xc15fa326	-13.977331
52	0xc159eee1	-13.62082
53	0xc1127d9a	-9.155664
54	0xc0e175ed	-7.045645
55	0xbf976ed6	-1.18307
56	0xc0828a39	-4.079373
57	0xc1542764	-13.259617
58	0xc15f5e3d	-13.960507
59	0xc1413c56	-12.07723
60	0xc1529683	-13.161746
61	0xc078fd9b	-3.8904788
62	0xc12f150e	-10.94264
63	0xc14a2998	-12.635155
64	0xc164fcc0	-14.311707
65	0xc036e60f	-2.8577917
66	0xc099aaeb	-4.802114
67	0xc1103aa2	-9.014315
68	0xbeb13a8a	-0.34614974
69	0xc1238004	-10.218754
70	0xc0a1db5e	-5.058028
71	0xc1123d00	-9.139893
72	0x3f927d43	1.1444477
73	0xc0df5ae6	-6.979846
74	0x3ff2e29a	1.8975403
75	0xc10aff77	-8.687369
76	0x3f225c08	0.6342168
77	0xc140f2e4	-12.059299
78	0x41e42be7	28.521437
79	0xc098b229	-4.771748
80	0xc0b80acd	-5.7513185
81	0xc1544010	-13.26564
82	0xc1376dde	-11.464323
83	0xc13dc19e	-11.85977

weight f4 [42, 84]
0	0x415879cd	13.5297365
1	0x4192bb98	18.341599
2	0x40655ffa	3.583983
3	0x40b11bc6	5.5346403
4	0xc12b9403	-10.723636
5	0x40cd0436	6.406764
6	0x40df18e6	6.9717894
7	0x41890502	17.127445
8	0xc10f7b6f	-8.967635
9	0x4190987e	18.07446
10	0x4179501f	15.582061
11	0x4157fa94	13.498676
12	0x405ee3b3	3.4826477
13	0x41181f28	9.5076065
14	0x419386a3	18.44074
15	0x416a62e1	14.64914
16	0x4123adb1	10.229905
17	0xc1a2de03	-20.358404
18	0x40cbe734	6.371973
19	0x40d44960	6.633957
20	0x4110583e	9.0215435
21	0x418a6626	17.299877
22	0xc164b05e	-14.293058
23	0x41e1a6e7	28.206495
24	0xc18f2885	-17.894785
25	0xc1a8ad9f	-21.084776
26	0x4198e6f3	19.112768
27	0x41ba6a9c	23.302055
28	0xc1848c2d	-16.568445
29	0x416df76b	14.872905
30	0x412fe241	10.992738
31	0xc209519b	-34.329693
32	0x409f19b8	4.9718895
33	0x41b99641	23.198366
34	0x4193b574	18.4636
35	0x416389a1	14.221101
36	0x41a925a3	21.143377
37	0xc0908df0	-4.5173264
38	0x418002e1	16.001406
39	0x40953a03	4.6633315
40	0x41be8fac	23.820152
41	0x41c03025	24.023508
42	0x41a162b6	20.173199
43	0x411bf28d	9.7467165
44	0x41224f0f	10.144301
45	0xc17fd0e5	-15.9885
46	0x412ceb31	10.80742
47	0x40de150d	6.9400697
48	0x41a94d2f	21.162687
49	0x416f4f56	14.956869
50	0xc179750a	-15.591074
51	0x41645de6	14.272924
52	0x41ae7fb3	21.812353
53	0xc18ae4ca	-17.361713
54	0xc09f12b9	-4.9710355
55	0x41377936	11.4670925
56	0x418b90b0	17.445648
57	0x41d7cf6f	26.976286
58	0x41999f8e	19.202908
59	0x412d0af5	10.815175
60	0x412567e7	10.337867
61	0x4114e22d	9.305219
62	0x41963845	18.777475
63	0x419dd220	19.7276
64	0x41a90552	21.127598
65	0x4184e72e	16.61288
66	0x40f31bd2	7.597146
67	0x418df4cf	17.744535
68	0xbd0c100e	-0.034195
69	0xc12d2aef	-10.822982
70	0x41a93077	21.148664
71	0x419925d1	19.143465
72	0x4186a4bb	16.830435
73	0xc1243eb0	-10.265305
74	0xc12bb6a9	-10.732095
75	0x4182377b	16.27709
76	0x41affe39	21.999132
77	0x410e0bcd	8.877881
78	0x40993f3a	4.788968
79	0x41ac9522	21.572819
80	0x41c23a5e	24.2785
81	0x419f6d1e	19.92828
82	0xbfb80635	-1.4376894
83	0x419f0298	19.876266
84	0x400fae04	2.244996
85	0x411f0f11	9.941178
86	0xbf18d900	-0.59706116
87	0x3ff777ef	1.9333476
88	0x41b63c80	22.779541
89	0x41995524	19.166573
90	0xc10c3215	-8.762227
91	0x4181bb36	16.216412
92	0xc066f16a	-3.6084847
93	0x418ec60f	17.846708
94	0x40c2be6f	6.0857463
95	0x41124f37	9.14434
96	0x40db026f	6.844047
97	0x4088c588	4.2741127
98	0x3f0cbd80	0.54976654
99	0xc141c60d	-12.110852
100	0xbdacf709	-0.08445556
101	0x412d9e8b	10.851207
102	0xc1288189	-10.531625
103	0x402b4de7	2.6766298
104	0x41110d3a	9.065729
105	0x417f78e5	15.967015
106	0xc1603130	-14.012009
107	0x41410fbb	12.06634
108	0x419fa29e	19.954403
109	0x41924bc3	18.286993
110	0x41997173	19.180395
111	0x41bcd882	23.605717
112	0x418a0bce	17.255764
113	0x4121dc8e	10.116346
114	0x4196394f	18.777983
115	0xc13070d7	-11.027549
116	0x3f11601b	0.5678727
117	0x41c02178	24.016342
118	0x405bff8d	3.4374726
119	0xc1bd64af	-23.674162
120	0x41831954	16.387367
121	0x417d93e1	15.848603
122	0x41a50d48	20.631485
123	0xc10b663b	-8.712459
124	0x417f3ed4	15.952839
125	0x41afa685	21.956308
126	0x40feb300	7.9593506
127	0x3d7451b4	0.05964823
128	0xc07a2c15	-3.9089406
129	0x41a608ab	20.754232
130	0x411edce1	9.9289255
131	0xbf8931b2	-1.0718291
132	0x41a4f5fd	20.620111
133	0x419b7313	19.431189
134	0x415066ac	13.025066
135	0x4080b1c4	4.0217
136	0x416bd23f	14.73883
137	0x409dcc18	4.931164
138	0x410b0970	8.689804
139	0x4114c67c	9.298458
140	0x4200fae6	32.245018
141	0x41615572	14.083361
142	0x41bef3b8	23.869003
143	0x4185e540	16.736938
144	0x4120d899	10.05288
145	0x417fd3e9	15.989236
146	0x4181054a	16.127583
147	0x416af457	14.684653
148	0x40eb7485	7.3579736
149	0x41668b05	14.40894
150	0x402d238f	2.7052953
151	0x41a0ab98	20.083786
152	0x3e17dc68	0.14830172
153	0x41a8d9ce	21.10635
154	0x4038a9ab	2.8853557
155	0x4142e020	12.179718
156	0x417a576b	15.646342
157	0x41b3e332	22.485935
158	0x41460127	12.375281
159	0x415a12e9	13.629617
160	0x411099b4	9.037525
161	0x4121426e	10.078718
162	0x414580ed	12.343976
163	0x40a491b5	5.1427865
164	0x419d9105	19.69581
165	0x418ff641	17.995241
166	0x419fd1d8	19.977463
167	0xc0ee2434	-7.4419193
168	0x41bba474	23.4553
169	0xc0b7db2c	-5.7455044
170	0x4183be4f	16.467924
171	0x410240a3	8.14078
172	0x41d2673d	26.30041
173	0xc13050a4	-11.019688
174	0xc0998a53	-4.7981353
175	0x41c276b7	24.307966
176	0xc1539359	-13.223474
177	0x4203fe1b	32.99815
178	0xc1163db8	-9.390068
179	0xc195b967	-18.715528
180	0x414a5c03	12.647464
181	0x41925b00	18.294434
182	0x4197331f	18.899961
183	0xc09bfdcd	-4.8747315
184	0x4100a616	8.040548
185	0x4120ab55	10.041829
186	0x408c81d3	4.3908477
187	0xc1c578a2	-24.683903
188	0x411d6c94	9.839008
189	0x41b18860	22.19159
190	0xc168f59d	-14.559964
191	0x4142bf1f	12.17166
192	0x40f22b0c	7.5677547
193	0xc18d862e	-17.690517
194	0x418441dd	16.53216
195	0x421fa6ea	39.913002
196	0x4118c254	9.547443
197	0xc03d0836	-2.9536262
198	0x41562294	13.383442
199	0x41efefea	29.992146
200	0x41504027	13.015662
201	0x41b22f4f	22.2731
202	0x41a9e88b	21.238546
203	0x40b00f35	5.5018563
204	0xc10a9e50	-8.6636505
205	0x414d4779	12.829949
206	0x415ecb67	13.924659
207	0x40b9a581	5.801453
208	0x41ef7f63	29.9372
209	0x419c1514	19.510292
210	0x3fec403f	1.8457106
211	0x40bac207	5.836185
212	0x417b9969	15.724954
213	0x41826334	16.298439
214	0x41843a3a	16.52843
215	0xc0b59402	-5.6743174
216	0x418660ef	16.79733
217	0x41b8a80a	23.08205
218	0x41a82669	21.018755
219	0x41b44fec	22.539024
220	0x41985859	19.043139
221	0xc16ee32c	-14.930462
222	0xc1bab77f	-23.339598
223	0x41b4c954	22.598305
224	0x40967952	4.7023096
225	0x41d62a15	26.770548
226	0x4179e6ec	15.618877
227	0x41a99fd3	21.20304
228	0x41ebb0ab	29.461264
229	0xc1080c3e	-8.502989
230	0x4117da2a	9.490763
231	0x419b2723	19.39411
232	0x40e1b21b	7.0529914
233	0x40398c4c	2.899188
234	0x40be2604	5.9421406
235	0x41368008	11.406258
236	0x3e4d1581	0.20027734
237	0x41909bec	18.076134
238	0x41909970	18.07492
239	0x41581589	13.505258
240	0x41212bbd	10.073178
241	0x41f8574f	31.042631
242	0x40faf8eb	7.8428855
243	0x4186a733	16.83164
244	0x4167e609	14.493661
245	0x40cc165f	6.377731
246	0x4113f72f	9.247848
247	0x419e87dd	19.81634
248	0x405dff3f	3.468704
249	0x419836d8	19.02678
250	0x419f68cf	19.926176
251	0x414ab30b	12.668712
252	0x41c6d759	24.85515
253	0x4175d78a	15.365122
254	0xc0b41ca1	-5.6284947
255	0xc123ae2a	-10.2300205

bias f4 [42]
0	0xc1aadc38	-21.357529
1	0xc253b9b7	-52.931362
2	0xc2458a59	-49.385105
3	0xc20f055b	-35.75523
4	0xc21b607d	-38.844227
5	0xc11f214f	-9.945632
6	0xc1681796	-14.505758
7	0xc24dbb77	-51.43307
8	0x420530ea	33.297768
9	0xc271021c	-60.25206
10	0xc2695860	-58.336304
11	0xbc637cec	-0.013884764
12	0xc2749c0d	-61.152393
13	0xc0d0ccc1	-6.5249944
14	0xc181f0c4	-16.242561
15	0xc1ff46c7	-31.90956
16	0xc247d5b6	-49.958702
17	0xc112e7b3	-9.181567
18	0xc1882a74	-17.02073
19	0xc1eaa4e0	-29.330505
20	0xc23fe219	-47.9708
21	0xc2871fe3	-67.56228
22	0xc27aa718	-62.663177
23	0xc1d48175	-26.563211
24	0xc1af92f2	-21.94675
25	0xc215b576	-37.427208
26	0x40d2c13c	6.586088
27	0xc27c21d6	-63.033043
28	0xc1cf78b1	-25.933931
29	0xc216c0d2	-37.6883
30	0xc1bac5d0	-23.346588
31	0x409478ac	4.6397305
32	0xc18d381d	-17.6524
33	0xc1b900e8	-23.125443
34	0xc180faf1	-16.12253
35	0xc2bb91b4	-93.78458
36	0x40acc5ba	5.3991365
37	0xc1de07e1	-27.753847
38	0xc2110840	-36.258057
39	0xc286a757	-67.326836
40	0xc21a164c	-38.521774
41	0xc14909f4	-12.56493
