target_net.pt (torch_old, 60300 bytes, 4 tensors)

weight f4 [84, 126]
8.262005 -11.358887 6.835783 -9.439431 -8.566637 -14.270374 4.440409 7.114563
-10.012458 -9.4587965 -8.519251 -10.705569 -1.7563721 -3.4897218 -1.9204051 -0.038746495
-7.8322477 1.7603371 -7.774587 -7.1425915 -0.2532245 -10.905334 3.8801236 -7.6859727
-3.8511512 -11.867072 -2.2244234 11.816867 -7.736932 -12.302339 -7.6842656 13.057904
-2.1225808 -6.906236 -10.173518 -11.2049265 -5.869238 -3.8363812 -15.068153 -8.90775
-5.1261625 -3.082357 -4.544206 -5.2779403 5.290373 -12.546792 2.4982688 -1.2945957
-14.862766 -18.28133 -10.558859 -12.951674 -13.767018 -9.670843 -12.354174 -0.11997779
-16.405697 -21.127905 -8.2655115 -4.5235553 0.4827254 -0.05991987 -3.8421743 -7.441671
-6.776581 -13.291296 -14.974271 -17.51462 6.9941583 -8.186171 2.185418 -15.358247
1.4186437 -6.652655 -6.9708138 5.138774 -10.03508 -3.779473 -3.4865954 2.8857603
-12.002822 5.819653 -13.456971 -4.462374 -21.74059 -9.790615 -14.933236 4.783415
-3.3707619 -17.017784 9.078149 -14.435178 -4.7206798 -11.865975 3.900897 -3.0604894
3.6321816 -13.120394 -5.5920725 -6.9257402 -6.5032277 0.8590859 -6.2905707 -3.60712
-6.200983 -15.320688 -10.537887 -1.8897171 -12.334453 -6.6603165 -6.309239 -17.449799
-13.235884 -0.58776164 -1.9455192 -11.587606 -12.4785 1.0949322 -6.8861475 -5.5109076
-13.654843 -19.110132 -16.066948 -17.033388 -9.580427 1.893365 -6.694353 -1.687127
-0.7211078 -1.5688723 -6.753558 -4.7279315 1.7884037 -2.3511827 -1.7958463 -3.8391333
-5.2488985 -9.210948 -3.6717143 4.308475 -10.144054 1.8732567 6.4882183 -7.037478
-5.877896 -11.886316 5.093298 3.0260446 -7.8644514 -9.592418 -7.7041435 -8.616216
1.5524298 5.984492 -2.2442503 -0.37146723 -2.103565 -13.271204 4.3462462 -6.031362
1.033841 -5.2681746 -3.0182168 -5.2711844 -9.160458 0.2526251 -12.726801 -7.370386
-10.738632 -8.051959 5.1863036 -5.9198318 -6.301219 -11.684932 -11.397737 -8.502234
-13.784771 11.342991 -5.437094 -11.16439 -2.5975285 -3.267483 -14.017329 -8.533313
-6.851661 -0.9503773 -10.699828 -8.093924 -3.15699 -13.360001 -13.218282 -8.551616
-3.0291061 -17.295233 -4.459414 -4.5595036 12.462447 -10.642136 -3.275723 -1.064241
-9.940747 -0.1889284 2.7046816 -2.4627488 -4.5571976 -8.59985 -1.6045988 -11.012299
-6.806196 -5.725055 -14.347435 -14.734831 3.4188907 -0.25354892 -13.050367 -6.330119
-3.1322496 7.27765 -10.294231 -11.63296 -2.7982378 -10.509103 -5.8490996 -8.823611
2.0916812 0.57555854 -15.564148 -2.651146 -4.5112658 -7.0915875 -9.822239 -4.747218
-7.3190956 -6.8980374 -1.8941824 -2.7435243 -7.7867136 -3.2099812 -4.0591846 -5.9663835
-17.647535 9.370515 -9.4572315 -3.474416 -10.40921 4.0358386 -18.559376 -5.8543
-14.671417 -1.4387238 -7.4712515 -7.710355 -10.598151 -6.4065847 4.4047403 19.485731
00000000: 2c31 0441 00be 35c1 bcbe da40 e907 17c1
00000010: f210 09c1 7453 64c1 d517 8e40 80aa e340
00000020: 0733 20c1 3b57 17c1 da4e 08c1 034a 2bc1
00000030: cdd0 e0bf 9a57 5fc0 d6cf f5bf a5b4 1ebd
00000040: c6a1 fac0 ba52 e13f 6bc9 f8c0 1c90 e4c0
00000050: a4a6 81be 407c 2ec1 f253 7840 7df3 f5c0
00000060: 4379 76c0 87df 3dc1 f45c 0ec0 e311 3d41
00000070: f294 f7c0 61d6 44c1 81e5 f5c0 2ded 5041
00000080: 5dd8 07c0 e3ff dcc0 bbc6 22c1 6147 33c1
00000090: ccd0 bbc0 4587 75c0 2817 71c1 2586 0ec1
000000a0: 8609 a4c0 5645 45c0 236a 91c0 e3e4 a8c0
000000b0: bc4a a940 a9bf 48c1 a3e3 1f40 50b5 a5bf
000000c0: e4cd 6dc1 2a40 92c1 16f1 28c1 0f3a 4fc1
000000d0: b545 5cc1 c6bb 1ac1 b2aa 45c1 eab6 f5bd
000000e0: de3e 83c1 f305 a9c1 893f 04c1 f7c0 90c0
000000f0: c927 f73e 8a6e 75bd 2fe6 75c0 2b22 eec0
00000100: c0d9 d8c0 26a9 54c1 9d96 6fc1 f11d 8cc1
00000110: 25d0 df40 8efa 02c1 e3dd 0b40 61bb 75c1
00000120: 1e96 b53f 8de2 d4c0 e810 dfc0 d670 a440
00000130: b08f 20c1 e3e2 71c0 6124 5fc0 4cb0 3840
00000140: 8f0b 40c1 993a ba40 c14f 57c1 c5cb 8ec0
00000150: baec adc1 5ca6 1cc1 89ee 6ec1 bc11 9940
00000160: 90ba 57c0 6c24 88c1 1940 1141 7df6 66c1
00000170: cf0f 97c0 09db 3dc1 4ca8 7940 0fdf 43c0
00000180: aa75 6840 22ed 51c1 42f2 b2c0 aa9f ddc0
00000190: 711a d0c0 0eed 5b3f 5b4c c9c0 0edb 66c0
000001a0: 746e c6c0 8a21 75c1 2f9b 28c1 40e2 f1bf
000001b0: eb59 45c1 5021 d5c0 49e5 c9c0 3099 8bc1
000001c0: 2ec6 53c1 8c77 16bf c606 f9bf d666 39c1
000001d0: f0a7 47c1 bd26 8c3f 525b dcc0 5b59 b0c0
000001e0: 3d7a 5ac1 8de1 98c1 1c89 80c1 6144 88c1
000001f0: 6e49 19c1 c959 f23f 2438 d6c0 c7f3 d7bf
00000200: 859a 38bf cfd0 c8bf 261d d8c0 374b 97c0
00000210: 6aea e43f c779 16c0 4bde e5bf 5cb4 75c0
00000220: faf6 a7c0 0b60 13c1 5efd 6ac0 07df 8940
00000230: 0c4e 22c1 e0c6 ef3f 7c9f cf40 0533 e1c0
00000240: b917 bcc0 5a2e 3ec1 4cfc a240 b7aa 4140
00000250: 96a9 fbc0 8b7a 19c1 5888 f6c0 05dc 09c1
00000260: 05b6 c63f f580 bf40 cca1 0fc0 f430 bebe
00000270: cfa0 06c0 da56 54c1 7314 8b40 eb00 c1c0
00000280: e754 843f e394 a8c0 772a 41c0 8bad a8c0
00000290: 3c91 12c1 1458 813e faa0 4bc1 34da ebc0
000002a0: 70d1 2bc1 d3d4 00c1 33f6 a540 436f bdc0
000002b0: 96a3 c9c0 7bf5 3ac1 215d 36c1 2709 08c1
000002c0: 6c8e 5cc1 e47c 3541 adfc adc0 57a1 32c1
000002d0: e83d 26c0 711e 51c0 fb46 60c1 7388 08c1
000002e0: cf40 dbc0 ed4b 73bf 7f32 2bc1 b680 01c1
000002f0: 200c 4ac0 90c2 55c1 157e 53c1 6bd3 08c1
00000300: e0dc 41c0 a35c 8ac1 85b3 8ec0 74e7 91c0
00000310: 2f66 4741 3046 2ac1 72a5 51c0 0d39 88bf
00000320: 4d0d 1fc1 7276 41be 8119 2d40 ad9d 1dc0
00000330: 90d4 91c0 fc98 09c1 7e63 cdbf 6032 30c1
00000340: 5ccc d9c0 a733 b7c0 188f 65c1 dec1 6bc1
00000350: 1bcf 5a40 2ad1 81be 4ece 50c1 5690 cac0
00000360: c776 48c0 82e2 e840 2cb5 24c1 9b20 3ac1
00000370: 5416 33c0 4925 28c1 d32b bbc0 832d 0dc1
00000380: 1bde 0540 ce57 133f c006 79c1 60ac 29c0
00000390: 4a5c 90c0 49ee e2c0 e427 1dc1 36e9 97c0
000003a0: 0836 eac0 b9bc dcc0 9274 f2bf e795 2fc0
000003b0: c22c f9c0 5570 4dc0 d7e4 81c0 9dec bec0
000003c0: 272e 8dc1 a1ed 1541 d250 17c1 d55c 5ec0
000003d0: 208c 26c1 9725 8140 9a79 94c1 6d56 bbc0
000003e0: 20be 6ac1 1a28 b8bf 7e14 efc0 3abb f6c0
000003f0: 0792 29c1 be02 cdc0 a2f3 8c40 c7e2 9b41

bias f4 [84]
-6.0441647 -5.2258477 -10.481165 -4.1239715 -8.758286 -9.795221 -0.052493982 3.2646668
-0.69985574 3.0617754 -11.260466 -18.425402 0.5416372 -2.6146154 4.1564965 -14.975345
-15.385727 -5.7848983 26.160734 -2.9995317 -4.4412274 -16.36684 73.11046 -8.703522
-10.136555 -5.7530336 1.3783028 -6.058476 -4.0038366 -12.111393 0.64051276 4.0218945
-8.322835 -1.0542965 -12.428696 -12.841841 -9.245723 -20.351025 -10.07797 -14.914277
4.3050003 2.8700945 -1.7607793 -9.059875 -6.5194383 -11.393541 -2.5121179 3.5144768
-7.879117 -13.757375 -1.6518762 -14.029609 -13.62082 -9.1569 -6.9869785 -1.1439161
-3.926966 -13.388854 -13.960507 -12.0693865 -13.183798 -3.817736 -10.863584 -12.675477
-14.211266 -2.8396416 -4.778359 -8.970166 -0.34614974 -10.192035 -5.1122284 -9.200086
1.1283826 -6.921229 1.8817313 -8.881014 0.6909349 -12.135916 28.558502 -4.884618
-5.646444 -13.21005 -11.356784 -11.89333
00000000: cc69 c1c0 253a a7c0 dab2 27c1 93f7 83c0
00000010: f121 0cc1 3ab9 1cc1 ee03 57bd 4df0 5040
00000020: bf29 33bf 21f4 4340 de2a 34c1 3967 93c1
00000030: bca8 0a3f dc55 27c0 0502 8540 039b 6fc1
00000040: f02b 76c1 e31d b9c0 2f49 d141 54f8 3fc0
00000050: 891e 8ec0 4aef 82c1 8e38 9242 a041 0bc1
00000060: 542f 22c1 da18 b8c0 3a6c b03f 09df c1c0
00000070: 6e1f 80c0 44c8 41c1 a5f8 233f 5cb3 8040
00000080: 552a 05c1 30f3 86bf f0db 46c1 2e78 4dc1
00000090: 7bee 13c1 e6ce a2c1 5d3f 21c1 e1a0 6ec1
000000a0: 90c2 8940 a1af 3740 3761 e1bf 3ff5 10c1
000000b0: 3d9f d0c0 f24b 36c1 8ac6 20c0 30ed 6040
000000c0: ba21 fcc0 351e 5cc1 ae70 d3bf 4779 60c1
000000d0: e1ee 59c1 aa82 12c1 5495 dfc0 d86b 92bf
000000e0: 6953 7bc0 bf38 56c1 3d5e 5fc1 351c 41c1
000000f0: d6f0 52c1 c955 74c0 3dd1 2dc1 c1ce 4ac1
00000100: 5861 63c1 b0bc 35c0 51e8 98c0 cd85 0fc1
00000110: 8a3a b1be 9312 23c1 6097 a3c0 8d33 13c1
00000120: d76e 903f b57a ddc0 92dc f03f a218 0ec1
00000130: 1ce1 303f b62c 42c1 d077 e441 ca4e 9cc0
00000140: abaf b4c0 5d5c 53c1 63b5 35c1 144b 3ec1

weight f4 [42, 84]
13.5297365 18.269545 3.583983 5.5346403 -10.723636 6.406764 6.9717894 17.127445
-8.967635 18.07446 15.582061 13.498676 3.4826477 9.5076065 18.310215 14.64914
10.229905 -20.358404 6.271447 6.633957 8.898756 17.299877 -14.238243 28.206495
-17.894785 -21.084776 19.112768 23.302055 -16.568445 14.872905 10.992738 -34.329693
4.9718895 23.061897 18.4636 14.221101 21.221195 -4.5173264 16.001406 4.6633315
23.820152 23.887411 20.01749 9.7467165 10.144301 -15.9885 10.80742 7.0611377
21.028776 14.956869 -15.591074 14.272924 21.812353 -17.361713 -4.9710355 11.4670925
17.445648 26.887455 19.202908 10.815175 10.337867 9.169437 18.777475 19.7276
21.127598 16.535769 7.597146 17.744535 -0.034195 -10.822982 20.996155 19.143465
16.830435 -10.265305 -10.732095 16.27709 21.999132 8.877881 4.700269 21.572819
24.209904 19.92828 -1.4376894 19.876266 2.244996 9.941178 -0.59706116 1.9333476
22.779541 19.3531 -8.762227 16.216412 -3.6084847 17.846708 6.0857463 9.14434
6.844047 4.2741127 0.54976654 -12.110852 -0.08445556 10.851207 -10.734345 2.6766298
9.00773 15.967015 -14.013603 12.06634 19.954403 18.215584 19.180395 23.605717
17.255764 10.116346 18.777983 -11.027549 0.5678727 24.196001 3.4374726 -23.674162
16.387367 15.848603 20.631485 -8.712459 15.952839 21.956308 7.9593506 0.05964823
-3.9089406 20.754232 9.9289255 -1.0718291 20.620111 19.431189 13.025066 4.0217
14.73883 4.931164 8.689804 9.298458 32.245018 14.083361 23.869003 16.736938
10.05288 15.989236 16.127583 14.684653 7.3579736 14.40894 2.7052953 20.083786
0.14830172 21.10635 2.815595 12.179718 15.646342 22.485935 12.375281 13.629617
9.037525 10.078718 12.3440895 5.1427865 19.69581 17.995241 19.977463 -7.4419193
23.53552 -5.7455044 16.467924 8.003015 26.30041 -11.019688 -4.7981353 24.321484
-13.223474 33.014133 -9.390068 -18.715528 12.829116 18.206919 18.993742 -4.8747315
8.040548 10.041829 4.466848 -24.683903 9.865053 22.19159 -14.535721 12.17166
7.661865 -17.690517 16.580166 39.905735 9.72389 -2.9536262 13.383442 30.005966
13.052627 22.135504 21.238546 5.5018563 -8.6636505 12.829949 13.924659 5.801453
29.951307 19.510292 1.8457106 5.836185 15.587575 16.298439 16.52843 -5.6743174
16.79733 23.063389 21.031654 22.46686 19.043139 -14.930462 -23.339598 22.644756
4.7023096 26.717457 15.618877 21.20304 29.324516 -8.502989 9.490763 19.476875
7.0529914 2.8203876 5.803052 11.418699 0.20027734 17.94 18.07492 13.505258
10.073178 31.042631 7.8428855 16.749989 14.493661 6.377731 9.382455 19.735525
3.4341304 19.02678 19.912216 12.668712 24.85515 15.365122 -5.6284947 -10.2300205
00000000: cd79 5841 0728 9241 fa5f 6540 c61b b140
00000010: 0394 2bc1 3604 cd40 e618 df40 0205 8941
00000020: 6f7b 0fc1 7e98 9041 1f50 7941 94fa 5741
00000030: b3e3 5e40 281f 1841 527b 9241 e162 6a41
00000040: b1ad 2341 03de a2c1 b2af c840 6049 d440
00000050: 4e61 0e41 2666 8a41 d8cf 63c1 e7a6 e141
00000060: 8528 8fc1 9fad a8c1 f3e6 9841 9c6a ba41
00000070: 2d8c 84c1 6bf7 6d41 41e2 2f41 9b51 09c2
00000080: b819 9f40 c47e b841 74b5 9341 a189 6341
00000090: 02c5 a941 f08d 90c0 e102 8041 033a 9540
000000a0: ac8f be41 6b19 bf41 d223 a041 8df2 1b41
000000b0: 0f4f 2241 e5d0 7fc1 31eb 2c41 d7f4 e140
000000c0: ef3a a841 564f 6f41 0a75 79c1 e65d 6441
000000d0: b37f ae41 cae4 8ac1 b912 9fc0 3679 3741
000000e0: b090 8b41 8219 d741 8e9f 9941 f50a 2d41
000000f0: e767 2541 04b6 1241 4538 9641 20d2 9d41
00000100: 5205 a941 4149 8441 d21b f340 cff4 8d41
00000110: 0e10 0cbd ef2a 2dc1 20f8 a741 d125 9941
00000120: bba4 8641 b03e 24c1 a9b6 2bc1 7b37 8241
00000130: 39fe af41 cd0b 0e41 9b68 9640 2295 ac41
00000140: e2ad c141 1e6d 9f41 3506 b8bf 9802 9f41
00000150: 04ae 0f40 110f 1f41 00d9 18bf ef77 f73f
00000160: 803c b641 26d3 9a41 1532 0cc1 36bb 8141
00000170: 6af1 66c0 0fc6 8e41 6fbe c240 374f 1241
00000180: 6f02 db40 88c5 8840 80bd 0c3f 0dc6 41c1
00000190: 09f7 acbd 8b9e 2d41 e1bf 2bc1 e74d 2b40
000001a0: a91f 1041 e578 7f41 b837 60c1 bb0f 4141
000001b0: 9ea2 9f41 84b9 9141 7371 9941 82d8 bc41
000001c0: ce0b 8a41 8edc 2141 4f39 9641 d770 30c1
000001d0: 1b60 113f 6991 c141 8dff 5b40 af64 bdc1
000001e0: 5419 8341 e193 7d41 480d a541 3b66 0bc1
000001f0: d43e 7f41 85a6 af41 00b3 fe40 b451 743d
00000200: 152c 7ac0 ab08 a641 e1dc 1e41 b231 89bf
00000210: fdf5 a441 1373 9b41 ac66 5041 c4b1 8040
00000220: 3fd2 6b41 18cc 9d40 7009 0b41 7cc6 1441
00000230: e6fa 0042 7255 6141 b8f3 be41 40e5 8541
00000240: 99d8 2041 e9d3 7f41 4a05 8141 57f4 6a41
00000250: 8574 eb40 058b 6641 8f23 2d40 98ab a041
00000260: 68dc 173e ced9 a841 b532 3440 20e0 4241
00000270: 6b57 7a41 32e3 b341 2701 4641 e912 5a41
00000280: b499 1041 6e42 2141 6481 4541 b591 a440
00000290: 0591 9d41 41f6 8f41 d8d1 9f41 3424 eec0
000002a0: bf48 bc41 2cdb b7c0 4fbe 8341 590c 0041
000002b0: 3d67 d241 a450 30c1 538a 99c0 6692 c241
000002c0: 5993 53c1 790e 0442 b83d 16c1 67b9 95c1
000002d0: 0f44 4d41 c5a7 9141 2ff3 9741 cdfd 9bc0
000002e0: 16a6 0041 55ab 2041 6bf0 8e40 a278 c5c1
000002f0: 42d7 1d41 6088 b141 5092 68c1 1fbf 4241
00000300: 002e f540 2e86 8dc1 2ea4 8441 799f 1f42
00000310: 0e95 1b41 3608 3dc0 9422 5641 380c f041
00000320: 8fd7 5041 8315 b141 8be8 a941 350f b040
00000330: 509e 0ac1 7947 4d41 67cb 5e41 81a5 b940
00000340: 479c ef41 1415 9c41 3f40 ec3f 07c2 ba40
00000350: b566 7941 3463 8241 3a3a 8441 0294 b5c0
00000360: ef60 8641 d281 b841 d440 a841 21bc b341
00000370: 5958 9841 2ce3 6ec1 7fb7 bac1 7628 b541
00000380: 5279 9640 5abd d541 ece6 7941 d39f a941
00000390: 9c98 ea41 3e0c 08c1 2ada 1741 a4d0 9b41
000003a0: 1bb2 e140 3b81 3440 9ab2 b940 feb2 3641
000003b0: 8115 4d3e 1f85 8f41 7099 9041 8915 5841
000003c0: bd2b 2141 4f57 f841 ebf8 fa40 faff 8541
000003d0: 09e6 6741 5f16 cc40 891e 1641 5be2 9d41
000003e0: cbc8 5b40 d836 9841 384c 9f41 0bb3 4a41
000003f0: 59d7 c641 8ad7 7541 a11c b4c0 2aae 23c1

bias f4 [42]
-21.334984 -52.95482 -49.339695 -35.751667 -38.831734 -9.815441 -14.384532 -51.4357
33.382908 -60.23687 -58.32095 0.15315652 -61.148376 -6.487148 -16.185503 -31.617352
-49.805893 -8.976632 -16.996895 -29.464815 -47.874706 -67.636215 -62.652264 -26.498486
-21.942822 -37.4207 6.6700563 -62.92429 -25.93546 -37.56485 -23.208479 4.6368265
-17.647886 -22.978811 -16.08005 -93.62204 5.300215 -27.730438 -36.423462 -67.25018
-38.481293 -12.572002
00000000: 0cae aac1 bcd1 53c2 d95b 45c2 b501 0fc2
00000010: b253 1bc2 0c0c 1dc1 0b27 66c1 28be 4dc2
00000020: 1988 0542 8ef2 70c2 a748 69c2 10d5 1c3e
00000030: f097 74c2 b796 cfc0 e97b 81c1 56f0 fcc1
00000040: 3c39 47c2 49a0 0fc1 a4f9 87c1 f1b7 ebc1
00000050: b37f 3fc2 be45 87c2 eb9b 7ac2 e6fc d3c1
00000060: e68a afc1 ccae 15c2 1a71 d540 79b2 7bc2
00000070: d27b cfc1 6842 16c2 f7aa b9c1 e260 9440
00000080: df2e 8dc1 9bd4 b7c1 f1a3 80c1 7c3e bbc2
00000090: 5c9b a940 f0d7 ddc1 a0b1 11c2 1880 86c2
000000a0: d8ec 19c2 ec26 49c1
